checkpoint/mnist_sum.pth (torch, 339013 bytes, 34 tensors)

conv1.0.weight f4 [32, 1, 3, 3]
-0.44140157 -0.5768237 0.54421055 -0.4051816 0.024623334 0.2443813 0.13010825 -0.05472786
0.36879465 -0.159632 0.11798153 0.6337676 -0.5050001 0.4172874 0.09396341 -0.60466033
-0.0024808734 -0.3284703 -0.37265578 0.18373063 0.41724294 0.28809667 -0.16109963 -0.45713517
-0.54216874 -0.4944586 0.3878969 -0.1633242 0.047451537 -0.07054369 -0.16862175 -0.100381136
-0.03249117 -0.11374923 0.14966297 -0.31374586 0.1580749 0.06177481 0.0459269 0.022667255
-0.031684536 -0.2227395 0.4115905 0.29890206 0.23184247 -0.07509659 -0.111060396 -0.25716534
0.108755656 0.5736444 0.3106626 -0.2794496 0.3026155 0.32867044 0.40449816 0.2049549
0.2664335 0.42846677 0.00812164 0.07315912 -0.43954256 -0.4295026 -0.6827065 -0.19396974
-0.024666179 -0.18948628 0.12513839 0.019908609 -0.032535724 -0.26096407 0.19456416 -0.33614624
0.1984043 -0.3354076 -0.14628829 -0.9057472 -0.53931457 -0.4032866 0.55500096 -0.2578357
0.07367793 0.056261048 -0.4781827 0.5643241 0.14830068 -0.2503915 -0.0061362535 0.46579525
-0.217419 -0.16876954 -0.48491728 0.21000192 -0.31051347 -0.08964716 0.41385317 0.4508408
-0.27230403 -0.62767965 0.41258544 -0.55374795 0.523964 0.64674914 0.07674582 -0.3752514
-0.1360466 -0.35347903 0.049585205 0.14319016 0.18907996 -0.31260073 0.11710974 0.008719928
-0.38742685 0.3930171 -0.12655632 0.41542187 -0.29885867 0.12064134 0.09410414 0.28967583
0.30840597 0.21197118 -0.2756899 0.051384993 0.3351386 -0.0075799488 -0.23514201 -0.3235143
-0.54409546 0.38491395 0.4283391 -0.40908492 0.044648796 -0.45321766 -0.66869813 0.33431292
0.3055588 0.20859127 0.6740379 -0.6697633 -1.0482334 0.24736667 -0.035566047 0.81706727
-0.5871239 -0.14870496 -0.8058201 -0.017944384 0.38584277 -0.17538014 0.025312467 0.37883452
0.43307278 0.03801477 -0.30216116 0.30111945 -0.3986874 -0.30143997 -0.12670524 -0.29784408
0.3478109 0.49843293 0.5750356 0.2638828 -0.081045926 -0.07984831 -0.403464 0.5875668
-0.13946709 -0.50535804 -0.24739978 -0.37952387 -0.36502215 0.37272334 0.45551592 0.43107572
0.50278664 -0.5668174 -0.5227603 -0.0830564 -0.03479235 -0.45128277 0.28577065 0.61526114
-0.09650402 -0.27345812 -0.5427211 0.34325475 -0.084164925 0.36541796 -0.1948507 -0.49580362
0.22107215 -0.41932142 -0.40166616 0.6846042 0.27322102 -0.09978963 -0.28217968 -0.08219099
-0.21516137 -0.23096845 -0.3138972 -0.0039105783 -0.15022838 0.1030888 0.15645964 0.41060445
-0.12309862 0.51631445 0.074339546 -0.33369848 -0.20403321 -0.30766967 0.15052927 0.568396
0.36485 0.040482387 0.6096292 -0.35452032 -0.73357594 -0.5515435 0.028486835 0.2747368
0.28337744 -0.24638833 0.13168836 -0.11145776 0.41566786 0.3381608 0.412515 0.026894413
0.2539582 -0.3825992 -0.101983905 0.053939264 -0.29923952 -0.102136776 -0.30209792 0.22768597
0.08684361 -0.1214635 -0.016437411 -0.58586854 0.25027907 0.42888945 -0.5852172 0.12360263
0.21562053 -0.4777286 -0.52508724 -0.64655757 -0.062708475 -0.39305207 0.24463785 -0.33669287
00000000: 63ff e1be b8aa 13bf 6251 0b3f f673 cfbe
00000010: e0b6 c93c 173f 7a3e 193b 053e 522a 60bd
00000020: a7d2 bc3e 9276 23be 4da0 f13d 983e 223f
00000030: b047 01bf b2a6 d53e e36f c03d 05cb 1abf
00000040: 2696 22bb 422d a8be bdcc bebe e223 3c3e
00000050: dea0 d53e 6881 933e 4df7 24be 9f0d eabe
00000060: 92cb 0abf ad29 fdbe 6c9a c63e 763e 27be
00000070: 8b5c 423d 3679 90bd 2eab 2cbe a094 cdbd
00000080: 7615 05bd 5bf5 e8bd 4041 193e 4ca3 a0be
00000090: 63de 213e 9507 7d3d d81d 3c3d aeb0 b93c
000000a0: a5c7 01bd d315 64be fdbb d23e b109 993e
000000b0: 1d68 6d3e 3ecc 99bd a273 e3bd 2dab 83be
000000c0: 49bb de3d 5cda 123f 2b0f 9f3e 0514 8fbe
000000d0: 6bf0 9a3e 7e47 a83e 621a cf3e b3df 513e
000000e0: f969 883e ff5f db3e a110 053c 73d4 953d
000000f0: b90b e1be c4e7 dbbe dac5 2ebf 01a0 46be
00000100: ba10 cabc b108 42be 4724 003e 6117 a33c
00000110: 2e44 05bd 159d 85be d43b 473e 5c1b acbe
00000120: 7f2a 4b3e 8cba abbe 99cc 15be 0cdf 67bf
00000130: 8510 0abf 957b cebe 8b14 0e3f 0a03 84be
00000140: 74e4 963d fc71 663d 5dd4 f4be 8b77 103f
00000150: 22dc 173e 5133 80be a012 c9bb b77c ee3e
00000160: 16a3 5ebe ecd1 2cbe 1447 f8be be0a 573e
00000170: 9ffb 9ebe ee98 b7bd 90e4 d33e 9bd4 e63e
00000180: 6f6b 8bbe 9daf 20bf 663e d33e 6dc2 0dbf
00000190: 8122 063f 5a91 253f ea2c 9d3d f420 c0be
000001a0: cd4f 0bbe 34fb b4be db19 4b3d 71a0 123e
000001b0: 2d9e 413e 340d a0be 3bd7 ef3d 07de 0e3c
000001c0: d05c c6be 8a39 c93e fb97 01be 2db2 d43e
000001d0: 0104 99be cf12 f73d acb9 c03d 6450 943e
000001e0: 63e7 9d3e f90e 593e 3a27 8dbe 1279 523d
000001f0: 4997 ab3e 3861 f8bb 11c9 70be aba3 a5be
00000200: d749 0bbf 7113 c53e 434f db3e 9473 d1be
00000210: a8e1 363d 250c e8be cd2f 2bbf 102b ab3e
00000220: 3472 9c3e f398 553e bf8d 2c3f 9c75 2bbf
00000230: 832c 86bf b04d 7d3e b4ad 11bd 522b 513f
00000240: c04d 16bf 1d46 18be 3a4a 4ebf 1a00 93bc
00000250: 2f8d c53e da96 33be 175c cf3c 99f6 c13e
00000260: b7bb dd3e 60b5 1b3d deb4 9abe 542c 9a3e
00000270: c120 ccbe 5756 9abe 05bf 01be 057f 98be
00000280: 4514 b23e 9a32 ff3e 8835 133f a51b 873e
00000290: 68fb a5bd 8387 a3bd d592 cebe c76a 163f
000002a0: 76d0 0ebe 255f 01bf 5e56 7dbe f450 c2be
000002b0: 2fe4 babe 98d5 be3e 6239 e93e f5b5 dc3e
000002c0: a0b6 003f f21a 11bf 9ed3 05bf 7919 aabd
000002d0: 6c82 0ebd 890e e7be 8850 923e c181 1d3f
000002e0: e6a3 c5bd b402 8cbe c5ef 0abf 16bf af3e
000002f0: a95e acbd 1018 bb3e f186 47be f9d9 fdbe
00000300: bd60 623e 4cb1 d6be 30a7 cdbe 3942 2f3f
00000310: a0e3 8b3e 815e ccbd db79 90be c053 a8bd
00000320: 4353 5cbe fe82 6cbe 22b7 a0be 4f24 80bb
00000330: 78d5 19be 3920 d33d f536 203e bf3a d23e
00000340: 211b fcbd 2f2d 043f 553f 983d 87da aabe
00000350: 15ee 50be e186 9dbe 5824 1a3e 6682 113f
00000360: 9fcd ba3e dcd0 253d a910 1c3f b083 b5be
00000370: a2cb 3bbf f431 0dbf 395d e93c 4daa 8c3e
00000380: d916 913e 394d 7cbe 50d9 063e f743 e4bd
00000390: 6bd2 d43e 6a23 ad3e 2b35 d33e ac51 dc3c
000003a0: cf06 823e 0be4 c3be f0dc d0bd 6bef 5c3d
000003b0: ec35 99be 162d d1bd 94ac 9abe 8326 693e
000003c0: 10db b13d dbc1 f8bd c0a7 86bc 7bfb 15bf
000003d0: 9424 803e 6697 db3e cbd0 15bf 6023 fd3d
000003e0: a1cb 5c3e d898 f4be 1e6c 06bf cc84 25bf
000003f0: 4d6d 80bd 1f3e c9be 5882 7a3e 0263 acbe

conv1.0.bias f4 [32]
0.1601696 0.3225443 0.16139461 -0.26552486 0.18737723 -0.5814754 0.21573853 -0.25245988
-0.04363396 0.29656345 0.2641146 0.41268367 0.4704901 0.29896092 0.16484945 -0.7857107
0.21467243 -0.101497255 0.06743266 -0.21110517 0.5225832 -0.31284422 -0.25993747 0.23323415
-0.19607173 -0.6386253 -0.28253567 -0.014948489 -0.063810684 -0.55630726 -0.3119547 0.16860126
00000000: 8003 243e 8724 a53e a144 253e e0f2 87be
00000010: d1df 3f3e 92db 14bf 90ea 5c3e 6c42 81be
00000020: 86b9 32bd 2ad7 973e 073a 873e 464b d33e
00000030: 14e4 f03e 6811 993e 4bce 283e 5624 49bf
00000040: 17d3 5b3e cbdd cfbd 221a 8a3d f42b 58be
00000050: 03c8 053f 1e2d a0be 8616 85be efd4 6e3e
00000060: 07c7 48be f37c 23bf 84a8 90be 82ea 74bc
00000070: 2daf 82bd 276a 0ebf 87b8 9fbe cfa5 2c3e

conv1.2.weight f4 [32]
1.0340966 1.0469594 0.9593652 1.0 0.63046694 0.90794814 1.0405297 0.9929184
1.13154 0.90367544 0.943106 0.9453435 0.68245643 0.4948934 1.091932 1.144043
1.0469214 1.0291904 0.960464 1.1536331 0.90295684 1.2132831 0.9998668 0.8113741
1.063961 0.7972429 1.0 1.339075 1.1831753 1.0862021 0.94471776 0.90392697
00000000: 475d 843f c402 863f f598 753f 0000 803f
00000010: 4866 213f 4a6f 683f 1430 853f e62f 7e3f
00000020: 4dd6 903f 4657 673f 656f 713f 0802 723f
00000030: 77b5 2e3f ab62 fd3e 6ec4 8b3f 0070 923f
00000040: 8501 863f 83bc 833f f8e0 753f 40aa 933f
00000050: 2e28 673f dc4c 9b3f 45f7 7f3f 37b6 4f3f
00000060: e02f 883f 1c18 4c3f 0000 803f cf66 ab3f
00000070: 4a72 973f ac08 8b3f 06d9 713f c267 673f

conv1.2.bias f4 [32]
0.20633654 0.23385425 -0.13812909 0.11826448 0.27563113 0.42093256 0.13511236 -0.04298421
0.065380566 0.11731385 0.12992813 0.13276583 0.09047424 0.22223535 -0.123163454 0.09188122
0.24343793 0.4223039 0.02371737 0.06722161 -0.09921086 0.06692633 -0.093181714 0.15072776
0.1389156 0.30306977 0.13577025 -0.09690212 0.036385775 0.09028753 0.42573625 0.17612867
00000000: e349 533e 7d77 6f3e b671 0dbe a634 f23d
00000010: 861f 8d3e 7984 d73e e55a 0a3e 3610 30bd
00000020: 3fe6 853d 3e42 f03d e10b 053e c4f3 073e
00000030: 8f4a b93d aa91 633e 1f3d fcbd 392c bc3d
00000040: cb47 793e 3738 d83e ee4a c23c 7cab 893d
00000050: 102f cbbd ac10 893d 0ed6 bebd 6158 1a3e
00000060: e43f 0e3e f62b 9b3e 5b07 0b3e 9e74 c6bd
00000070: 4009 153d abe8 b83d 1afa d93e 135b 343e

conv1.2.running_mean f4 [32]
0.20259094 0.31009367 0.13574192 0.0 0.34305713 0.042576488 0.260396 3.6277176e-11
0.0042227674 0.31652948 0.24825281 0.42395478 0.4701762 0.47875372 0.11780016 0.017200287
0.2190932 0.032964054 0.11453241 0.020140355 0.48469868 0.032089442 6e-45 0.3531259
0.015600728 0.027503546 0.0 0.009868556 0.049679346 0.012488293 0.051291816 0.20294742
00000000: 0074 4f3e 99c4 9e3e eeff 0a3e 0000 0000
00000010: 2fa5 af3e af64 2e3d a052 853e 788c 1f2e
00000020: 245f 8a3b 2710 a23e fc35 7e3e 9a10 d93e
00000030: efba f03e 351f f53e 3641 f13d 9ee7 8c3c
00000040: f859 603e 5105 073d f88f ea3d 63fd a43c
00000050: 6d2a f83e 3870 033d 0400 0000 ebcc b43e
00000060: 329a 7f3c 1e4f e13c 0000 0000 b9af 213c
00000070: 927c 4b3d b39b 4c3c 5e17 523d 73d1 4f3e

conv1.2.running_var f4 [32]
0.04643474 0.04041195 0.008783908 6e-45 0.07780282 0.015244865 0.065309934 4.4555145e-13
0.00094120466 0.013946661 0.023780754 0.039106052 0.007740474 0.10964135 0.006551221 0.006367306
0.037407238 0.012632718 0.029274072 0.007684065 0.01229091 0.015940879 6e-45 0.050177865
0.005248562 0.0076187793 6e-45 0.00427667 0.028716583 0.005173781 0.019649804 0.041230645
00000000: 5b32 3e3d 0087 253d 61ea 0f3c 0400 0000
00000010: 1657 9f3d 99c5 793c 37c1 853d bbd2 fa2a
00000020: 2dbb 763a 8980 643c dbcf c23c ab2d 203d
00000030: cda3 fd3b a58b e03d a0ab d63b d6a4 d03b
00000040: 5538 193d 76f9 4e3c 2ed0 ef3c 9cca fb3b
00000050: d05f 493c 7296 823c 0400 0000 4e87 4d3d
00000060: 21fc ab3b f4a6 f93b 0400 0000 4f23 8c3b
00000070: 0a3f eb3c d288 a93b a0f8 a03c 77e1 283d

conv2.0.weight f4 [64, 32, 3, 3]
-0.05029736 -0.02438779 0.03680898 -0.09551178 -0.026426982 0.101923205 -0.0133447265 -0.008465435
0.08727541 -0.12334234 -0.037874524 0.14970809 -0.22982638 -0.026785681 0.044614576 -0.35613912
-0.037287023 0.064627156 -0.109651476 0.002408117 0.12708871 -0.06056351 -0.018061664 0.08456902
-0.14867081 -0.14556822 0.004652069 0.0044688056 0.020588018 0.03496371 0.017097268 -0.061476488
0.0010757961 0.018539287 -0.027595166 -0.05794707 0.048841614 0.0469595 -0.030056074 0.09105743
0.009824006 -0.059588753 0.1274604 0.013128692 0.029718239 -0.14677303 -0.10566077 -0.06176869
-0.1314072 0.0011182779 -0.0016749678 0.07321271 -7.2395946e-05 -0.058312733 -0.113217816 -0.020942593
-0.11867627 0.017273288 0.033811443 -0.02399785 0.14908934 0.032340355 -0.1477927 0.05111141
-0.007217849 0.00060419267 -0.015820647 0.028418908 0.0556824 -0.037012883 -0.0267215 -0.051804572
-0.026781738 0.07143763 0.027358826 0.08314044 0.07708681 0.003312475 0.051910635 -0.0014087156
-0.20075132 0.0065033515 0.038982272 -0.07648017 0.07673899 -0.103096575 0.010037041 0.14761777
-0.010550828 -0.08139016 -0.03923624 -0.11793708 0.13646121 -0.02098288 -0.07377468 0.0037863406
-0.2511914 -0.052530866 0.10939035 -0.13441919 0.064856425 0.17947 -0.12320486 -0.04881697
0.13003099 -0.1067546 -0.039025567 0.1260935 -0.09953782 -0.059772603 0.037726343 -0.08353467
0.02953039 0.07650018 -0.08188835 -0.023994839 0.025696145 0.03912376 0.047695134 -0.016835807
0.06348089 -0.04728223 -0.0626117 0.02903255 0.031763367 0.03684389 -0.12656137 0.0138313575
0.01542295 0.0005983605 0.16290927 -0.005416815 0.014834325 0.12526064 -0.2568798 0.319359
0.06629781 -0.14615828 0.15516207 -0.023924602 -0.13080435 -0.009016762 -0.10637576 -0.06916619
-0.056917902 -0.08260957 -0.019557485 0.033496518 0.07755172 -0.048450835 -0.023270024 -0.041167893
-0.13940741 -0.051857363 -0.11059808 -0.0774807 -0.13295782 -0.04693565 -0.03255736 0.014323462
-0.05934153 0.014132264 -0.0154028 -0.032119576 0.024895532 0.040087122 0.07162501 -0.004066878
0.08662518 0.06688317 -0.018547915 0.022963166 0.014103204 -0.12361733 0.06339725 0.03893589
-0.03734512 -0.017848354 -0.069115505 0.0015786559 -0.04909833 0.084542796 -0.07998263 -0.021229872
0.12612528 0.039695933 0.064825475 0.056790676 -0.084196046 0.08846592 -0.03398904 0.03930737
0.1564564 0.004107051 -0.06498544 0.1827908 -0.088309385 -0.06548512 0.0041081486 -0.03840776
-0.040610038 -0.04898037 -0.04041841 0.049519908 0.02691424 0.031652514 0.015554828 -0.047665305
0.011311727 0.114229456 -0.07294053 0.00097126904 0.10194916 0.0127348825 0.022991613 0.08143348
-0.16856262 0.15081227 0.15370908 -0.005510761 0.00025868605 0.11352878 0.017841652 0.124152526
0.0113540655 0.06276961 0.0017538496 -0.07291443 -0.011767442 -0.09084246 -0.073688485 -0.0068020895
0.03883603 0.015523883 0.0118423505 0.0332613 -0.021793684 -0.033799216 -0.00048545268 0.018909052
0.04075689 -0.06974775 0.03215 -0.04187551 0.015417055 -0.011112215 0.050681878 -0.019091183
-0.033632085 0.12746972 0.1533021 -0.0491652 0.049855243 -0.12849024 0.032791723 0.030438347
00000000: 9b04 4ebd e7c8 c7bc 03c5 163d ae9b c3bd
00000010: 667d d8bc 1dbd d03d d7a3 5abc 9cb2 0abc
00000020: 73bd b23d e99a fcbd 5122 1bbd 144d 193e
00000030: 9b57 6bbe a56d dbbc c6bd 363d de57 b6be
00000040: 47ba 18bd 3e5b 843d f490 e0bd 80d1 1d3b
00000050: 8b23 023e 7111 78bd 0ef6 93bc 8632 ad3d
00000060: 293d 18be d60f 15be 6270 983b 0f6f 923b
00000070: 34a8 a83c 1b36 0f3d 920f 8c3c c5ce 7bbd
00000080: ba01 8d3a b4df 973c 420f e2bc e859 6dbd
00000090: 250e 483d 9b58 403d 2838 f6bc 517c ba3d
000000a0: def4 203c 5613 74bd fb84 023e ba19 573c
000000b0: aa73 f33c ab4b 16be ac64 d8bd 2a01 7dbd
000000c0: 9c8f 06be 2e93 923a 988a dbba 8cf0 953d
000000d0: 47d3 97b8 55d9 6ebd bede e7bd cd8f abbc
000000e0: 8b0c f3bd b680 8d3c de7d 0a3d 2497 c4bc
000000f0: e0aa 183e 5277 043d f856 17be 335a 513d
00000100: b583 ecbb af62 1e3a 4d9a 81bc c5ce e83c
00000110: 3a13 643d d29a 17bd 0ce7 dabc 0831 54bd
00000120: 6065 dbbc e44d 923d 9e1f e03c 8945 aa3d
00000130: b0df 9d3d 1c16 593b 3fa0 543d a7a4 b8ba
00000140: c191 4dbe 111a d53b e0ab 1f3d a3a1 9cbd
00000150: 5529 9d3d 4c24 d3bd 6772 243c 1d29 173e
00000160: 61dd 2cbc e2af a6bd 2eb6 20bd ff88 f1bd
00000170: 7dbc 0b3e 4ae4 abbc 2e17 97bd 4124 783b
00000180: 299c 80be 9b2a 57bd 0c08 e03d 2fa5 09be
00000190: 72d3 843d fcc6 373e d452 fcbd 4ef4 47bd
000001a0: d826 053e 28a2 dabd 46d9 1fbd a81e 013e
000001b0: 7cda cbbd 1ed4 74bd f086 1a3d 3a14 abbd
000001c0: b7e9 f13c 20ac 9c3d 14b5 a7bd d390 c4bc
000001d0: b980 d23c 3c40 203d f95b 433d 3feb 89bc
000001e0: 4502 823d 03ab 41bd 903a 80bd acd5 ed3c
000001f0: 4e1a 023d 9ee9 163d 4e99 01be eb9c 623c
00000200: 8ab0 7c3c 4bdb 1c3a b0d1 263e 8a7f b1bb
00000210: ab0b 733c 5344 003e c085 83be 0683 a33e
00000220: 25c7 873d 84aa 15be cee2 1e3e 87fd c3bc
00000230: 93f1 05be 0abb 13bc 89db d9bd 01a7 8dbd
00000240: bf22 69bd 352f a9bd 0537 a0bc a533 093d
00000250: 70d3 9e3d 6274 46bd c7a0 bebc aa9f 28bd
00000260: d1c0 0ebe 6368 54bd 3f81 e2bd 34ae 9ebd
00000270: 1826 08be 993f 40bd de5a 05bd f4ac 6a3c
00000280: 1b10 73bd 038b 673c 075c 7cbc d18f 03bd
00000290: b7f1 cb3c 6532 243d 22b0 923d 7243 85bb
000002a0: 8b68 b13d 0bfa 883d ccf1 97bc 401d bc3c
000002b0: 2011 673c 152b fdbd 6bd6 813d 3d7b 1f3d
000002c0: 32f7 18bd b636 92bc 6e8c 8dbd e7ea ce3a
000002d0: 551b 49bd c624 ad3d efcd a3bd 45ea adbc
000002e0: fc26 013e 3498 223d 38c3 843d 579d 683d
000002f0: fa6e acbd 9f2d b53d 1738 0bbd c400 213d
00000300: 1b36 203e 7194 863b 1617 85bd 832d 3b3e
00000310: 8ddb b4bd 101d 86bd a69d 863b 7551 1dbd
00000320: b656 26bd a49f 48bd c68d 25bd 63d5 4a3d
00000330: 417b dc3c 11a6 013d add9 7e3c b23c 43bd
00000340: d254 393c 22f1 e93d d861 95bd c39c 7e3a
00000350: b9ca d03d f8a5 503c e858 bc3c 99c6 a63d
00000360: ae9b 2cbe 886e 1a3e ea65 1d3e 9d93 b4bb
00000370: 41a0 8739 c781 e83d a828 923c ae43 fe3d
00000380: 6706 3a3c 5a8d 803d 6de1 e53a 2954 95bd
00000390: 3bcc 40bc 9d0b babd fde9 96bd 10e4 debb
000003a0: 8712 1f3d e257 7e3c 6b06 423c 003d 083d
000003b0: ab88 b2bc 0c71 0abd 5b84 feb9 28e7 9a3c
000003c0: b2f0 263d e9d7 8ebd b8af 033d a885 2bbd
000003d0: d197 7c3c 0210 36bc cd97 4f3d 1d65 9cbc
000003e0: ccc1 09bd 6c87 023e 3afb 1c3e 7361 49bd
000003f0: 0335 4c3d f292 03be 9d50 063d d759 f93c

conv2.0.bias f4 [64]
-0.1860033 -0.023228439 0.04305597 -0.08009332 -0.062331066 -0.064351484 -0.010963228 -0.06892537
-0.05594785 -0.0071511953 -0.0236924 -0.15494883 -0.19693246 -0.18930207 0.02469788 -0.07809487
0.036676824 0.0031372136 0.041882243 -0.05585825 -0.11722106 -0.1079948 -0.039630637 -0.17791013
-0.08270011 -0.048836 -0.13405588 0.013235925 -0.05139387 -0.051039282 -0.22684963 -0.109338984
-0.091958284 -0.022005761 0.015926708 -0.14083004 0.013114113 0.008845851 -0.021866577 -0.030349368
-0.16415353 -0.22791812 -0.016407225 0.0145254275 -0.005451802 -0.23357019 -0.0035027275 -0.0708994
-0.14431171 -0.010978651 0.010802582 -0.004406833 -0.07642904 -0.035308354 -0.09756558 -0.07858664
0.07589561 -0.09284529 -0.13322471 0.0018712904 -0.06339423 -0.060715772 -0.019341737 -0.07046133
00000000: a677 3ebe 9149 bebc 755b 303d f707 a4bd
00000010: dc4e 7fbd b6ca 83bd 1c9f 33bc bf28 8dbd
00000020: 9329 65bd 9354 eabb 9016 c2bc e8aa 1ebe
00000030: aaa8 49be 67d8 41be 3553 ca3c 34f0 9fbd
00000040: 703a 163d b699 4d3b b78c 2b3d 9fcb 64bd
00000050: 9811 f0bd 612c ddbd bc53 22bd 132e 36be
00000060: ad5e a9bd 4208 48bd f245 09be 7edb 583c
00000070: 6182 52bd 910e 51bd 454b 68be 1eed dfbd
00000080: a054 bcbd 6d45 b4bc ba78 823c c035 10be
00000090: 94dc 563c 30ee 103c 8921 b3bc 3d9f f8bc
000000a0: dd17 28be 5e63 69be 7268 86bc 0ffc 6d3c
000000b0: 08a5 b2bb 062d 6fbe 048e 65bb b433 91bd
000000c0: 73c6 13be cddf 33bc 50fd 303c 3267 90bb
000000d0: d486 9cbd 7e9f 10bd 76d0 c7bd 08f2 a0bd
000000e0: 286f 9b3d ac25 bebd 0f6c 08be 1646 f53a
000000f0: d6d4 81bd 1ab1 78bd 9072 9ebc 084e 90bd

conv2.2.weight f4 [64]
1.0849812 1.0084004 1.120937 1.0950613 0.8978015 0.9562171 1.0791094 0.9553436
1.0756394 1.0957409 1.0176685 0.95721287 0.9141115 1.0853281 0.9204627 0.9210159
0.8446532 1.111963 0.9602318 1.0314454 0.8801146 0.98490584 1.1221167 0.98748755
0.98053324 0.97490585 0.982779 0.9293704 1.0683955 1.1049051 1.1960365 0.89589345
1.0630325 1.0125643 1.0273131 1.0059658 0.8831815 0.95277464 0.8575211 0.9805441
0.9165908 1.040957 0.95685637 0.9585484 0.9127587 0.9426784 0.9868674 0.92698497
1.1767179 0.95133036 0.92888296 1.1031065 0.94671893 1.0012475 0.90901524 0.9389688
0.98059225 0.9255482 0.93932664 0.89349574 0.96362066 0.91213566 0.91264665 1.123585
00000000: aae0 8a3f 4413 813f dd7a 8f3f f82a 8c3f
00000010: 52d6 653f a5ca 743f 4220 8a3f 6691 743f
00000020: 8dae 893f 3d41 8c3f f642 823f e70b 753f
00000030: 3603 6a3f 08ec 8a3f 72a3 6b3f b3c7 6b3f
00000040: 313b 583f ce54 8e3f c0d1 753f 6706 843f
00000050: 314f 613f ca22 7c3f 85a1 8f3f fccb 7c3f
00000060: 3a04 7b3f 6e93 793f 6897 7b3f 38eb 6d3f
00000070: 2fc1 883f 886d 8d3f b917 993f 4659 653f
00000080: 7311 883f b59b 813f ff7e 833f 7dc3 803f
00000090: 2f18 623f 0ae9 733f 8186 5b3f f004 7b3f
000000a0: b2a5 6a3f 143e 853f 8af4 743f 6e63 753f
000000b0: 8eaa 693f 5f53 713f 58a3 7c3f e34e 6d3f
000000c0: b19e 963f 638a 733f 46cb 6d3f 9832 8d3f
000000d0: 2c5c 723f e128 803f 39b5 683f 4260 703f
000000e0: 1808 7b3f baf0 6c3f b677 703f 23bc 643f
000000f0: d8af 763f b981 693f 36a3 693f a2d1 8f3f

conv2.2.bias f4 [64]
0.071751535 -0.14800179 0.14617081 -0.020290656 -0.038029514 0.0027875174 -0.09607642 -0.1505068
-0.03260029 -0.0059526456 -0.039593473 0.011267691 0.059851643 0.20715047 -0.10226017 0.23552264
-0.020753214 0.0028344358 -0.08717853 0.22771744 0.06736833 0.09814034 0.092298426 0.13887027
-0.064946175 0.08947779 -0.05705863 0.03086017 0.062656224 0.22415157 0.14599092 0.36157593
0.056480523 -0.05323755 -0.069087744 0.18555106 -0.01179146 0.0066366415 0.11062072 -0.03758331
-0.0254573 0.019215096 -0.026784971 0.14877465 0.14371578 0.04551203 0.10995245 -0.12109989
0.07407743 0.10431451 0.2272294 0.14471573 0.17975341 -0.018895807 -0.17578216 -0.11985126
0.047444444 0.0084157735 0.102351405 -0.12504531 0.05358996 -0.0010435113 0.019977663 0.19642971
00000000: 78f2 923d c88d 17be cdad 153e 9738 a6bc
00000010: d6c4 1bbd c8ae 363b b7c3 c4bd 741e 1abe
00000020: e287 05bd 690e c3bb c42c 22bd 1f9c 383c
00000030: ff26 753d 411f 543e c86d d1bd d92c 713e
00000040: a502 aabc f1c1 393b a88a b2bd c32e 693e
00000050: 68f8 893d cdfd c83d f506 bd3d 0234 0e3e
00000060: 8002 85bd 2240 b73d 4fb6 69bd 78ce fc3c
00000070: e851 803d fd87 653e a57e 153e 7b20 b93e
00000080: 1f58 673d 9e0f 5abd e07d 8dbd 1901 3e3e
00000090: f830 41bc 2f78 d93b 1e8d e23d f5f0 19bd
000000a0: d48b d0bc fa68 9d3c 286c dbbc 6258 183e
000000b0: 3b2a 133e d36a 3a3d c02e e13d 3803 f8bd
000000c0: e8b5 973d d9a2 d53d d3ae 683e 5c30 143e
000000d0: 4711 383e 61cb 9abc 3d00 34be 9474 f5bd
000000e0: 1b55 423d 50e2 093c 9d9d d13d e10b 00be
000000f0: 2581 5b3d 6ec6 88ba 32a8 a33c df24 493e

conv2.2.running_mean f4 [64]
0.66802186 0.35419747 0.4452635 0.62380105 0.5474195 0.24351864 0.5261412 0.41125092
0.37594017 0.9349172 0.61182535 0.19418146 0.2998623 0.14396225 0.6658714 0.75184894
0.7932868 0.6071691 0.45890868 0.47563204 0.24560738 0.4828871 0.4690804 0.32249725
0.31277183 0.32767662 0.781865 0.8725778 0.6969947 0.36345664 0.20412034 0.91185313
0.46230254 0.60401607 0.37240914 0.6142411 0.9606453 0.5783823 0.45817652 0.18412617
0.37831935 0.33529708 0.25396153 0.7504041 0.4720538 0.14876166 0.20393194 0.32577685
0.35117713 0.35311556 0.8549919 0.5494528 0.4856417 0.541277 0.3061525 0.3037715
0.45991212 0.48193023 0.32646495 0.48588556 0.30915698 0.44850796 0.32572606 1.0567565
00000000: 7b03 2b3f 5f59 b53e 94f9 e33e 6db1 1f3f
00000010: af23 0c3f f35c 793e 31b1 063f 7b8f d23e
00000020: 3b7b c03e bc56 6f3f 96a0 1c3f 81d7 463e
00000030: 8d87 993e d76a 133e 8c76 2a3f 2c79 403f
00000040: d814 4b3f 6f6f 1b3f 14f6 ea3e 0b86 f33e
00000050: 8080 7b3e fa3c f73e 4e2b f03e 5c1e a53e
00000060: a123 a03e 3bc5 a73e 4e28 483f 4261 5f3f
00000070: 3f6e 323f fd16 ba3e ec04 513e 356f 693f
00000080: ebb2 ec3e cca0 1a3f 69ac be3e e83e 1d3f
00000090: daec 753f dd10 143f 1d96 ea3e 928b 3c3e
000000a0: 13b3 c13e 0fac ab3e 3f07 823e 7c1a 403f
000000b0: 09b1 f13e fa54 183e 89d3 503e 39cc a63e
000000c0: 7dcd b33e 90cb b43e c0e0 5a3f f0a8 0c3f
000000d0: 07a6 f83e 2191 0a3f 05c0 9c3e f087 9b3e
000000e0: 9a79 eb3e 8fbf f63e 6a26 a73e fec5 f83e
000000f0: d349 9e3e d6a2 e53e 91c5 a63e cc43 873f

conv2.2.running_var f4 [64]
3.146939 1.091232 0.76585835 1.5364249 1.5819497 0.7799577 1.0127198 1.2239991
0.7630658 2.0319216 1.2625232 0.5118279 1.0016183 0.48051083 1.0750682 2.433816
1.7330172 1.3536849 1.3032316 0.7144553 0.650248 1.719938 1.2247846 0.85982925
0.5862156 0.89227474 2.7962193 1.3236307 1.4826962 0.7628 1.0282723 3.0577676
1.3482406 0.8386902 0.80527794 2.0053012 1.0524464 2.3664358 1.4244875 0.6633145
0.98522985 1.4292011 0.8593843 1.0218344 0.82810646 0.46999386 0.31783766 0.9653728
1.2965549 1.1096644 2.1298707 1.7357098 1.9005133 1.0782888 0.85586816 0.7589247
0.7354418 1.7140714 0.83933944 1.1894095 0.9530249 1.6591212 0.7424082 5.112114
00000000: 7367 4940 7dad 8b3f 4b0f 443f 92a9 c43f
00000010: 547d ca3f 4fab 473f cda0 813f 01ac 9c3f
00000020: 4858 433f 010b 0240 5c9a a13f 2707 033f
00000030: 0735 803f 8405 f63e d69b 893f a4c3 1b40
00000040: 82d3 dd3f 8c45 ad3f 4bd0 a63f 8be6 363f
00000050: a776 263f ee26 dc3f bec5 9c3f c51d 5c3f
00000060: 3a12 163f 1e6c 643f 42f5 3240 bb6c a93f
00000070: fdc8 bd3f dc46 433f 6d9e 833f 77b2 4340
00000080: 2693 ac3f 67b4 563f b226 4e3f db56 0040
00000090: 90b6 863f af73 1740 9b55 b63f fbce 293f
000000a0: 0638 7c3f 10f0 b63f 9c00 5c3f 78cb 823f
000000b0: c9fe 533f 09a3 f03e 9ebb a23e ac22 773f
000000c0: 83f5 a53f 7c09 8e3f cd4f 0840 bd2b de3f
000000d0: 0544 f33f 5e05 8a3f 2d1a 5b3f e448 423f
000000e0: ea45 3c3f b166 db3f f3de 563f 923e 983f
000000f0: 71f9 733f 155e d43f 770e 3e3f 7096 a340

transition.1.weight f4 [32, 64, 1, 1]
-0.01897829 0.11036174 -0.125003 0.10940817 -0.029673506 0.08118901 -0.042035524 -0.22781186
0.08761209 -0.43396202 -0.14242576 0.3029951 0.19974612 0.0026259995 -0.024359591 0.121731415
0.15534237 -0.19614673 -0.24809927 0.22263844 -0.10302963 0.23799144 0.11935108 0.2636889
0.18121874 0.16678992 -0.3749589 -0.07144713 0.27071846 0.35079956 -0.1840867 0.11859095
0.031016327 -0.15972084 -0.028024388 0.0974681 0.0026947958 0.037422106 -0.15376067 -0.132286
-0.24082412 0.013749561 -0.12904045 0.22228456 -0.026965098 -0.16309115 0.08031379 0.1903634
0.35914972 0.07441135 0.2236077 0.2686178 0.13257587 0.031153737 0.19567977 -0.28056473
-0.18372665 0.068422526 -0.0030028946 -0.09167305 0.2789604 -0.1092409 0.33858025 0.344047
-0.2778869 0.19162922 0.23148577 -0.05946436 -0.08134993 -0.039546326 0.38412014 -0.16666698
0.008382896 0.19726306 0.06736686 0.086095326 0.13932519 0.1708169 -0.20756288 -0.23273809
0.18683614 0.2807894 -0.2267675 0.08829174 0.01993087 0.1587054 0.22546063 0.10858742
-0.11549304 0.14716922 -0.045490876 0.116839975 0.19164021 0.24030416 -0.20161977 0.10752797
-0.0765792 0.056128748 -0.06798416 -0.1264135 -0.04103652 -0.14790341 -0.05060699 -0.19011658
-0.30310243 -0.33992785 -0.16613567 0.16111259 0.06264709 -0.085658774 0.032015774 0.03936145
-0.40758628 0.12891634 -0.03458274 0.3594569 -0.16228537 -0.074933216 -0.09642003 0.055186912
0.27244657 0.20996359 -0.036957484 -0.3328378 -0.021462744 0.20258139 -0.14665492 -0.08797934
-0.16362928 -0.113926515 -0.18053153 -0.14474711 0.18742232 -0.120945565 0.01857008 0.3102383
0.05819645 0.2482205 0.3642298 0.021782221 0.021974519 -0.16538823 0.25541744 -0.22355668
0.013554365 -0.066166244 -0.16636938 0.25311404 0.028443998 -0.07334635 0.14288133 0.09461095
-0.06894163 0.07047524 -0.2843408 0.06115745 0.1332644 0.018883944 0.28981635 -0.1123596
-0.103747495 -0.3110371 -0.027430322 -0.01974894 -0.11512167 -0.14871734 -0.02473095 -0.29225582
0.06426251 -0.034361042 -0.2260012 0.042527873 0.10636813 0.026922887 0.09705749 0.1847459
-0.09032482 0.039228797 0.08721785 -0.020498658 -0.0271601 -0.15503204 0.13045728 -0.15846358
0.32559168 0.085769914 -0.014038392 -0.27828598 0.014576785 -0.02660937 0.23775084 0.19095734
-0.14619051 -0.020408656 0.44557413 -0.19953567 0.13785952 -0.06430716 -0.29046133 -0.2813364
0.004599219 -0.23930334 -0.12235133 -0.17003414 0.058917064 -0.05272369 0.00075299566 0.12767412
0.052056123 0.18420021 -0.100450434 0.20561524 -0.018077098 0.19344455 -0.11018554 0.20817815
-0.0057213022 0.2196747 0.13909627 0.20958099 0.3305404 0.043204866 -0.20030393 0.15449521
0.09367516 -0.30979884 0.015856141 0.08405526 0.2932038 -0.22944678 0.04916475 0.13789712
0.34084004 0.12109065 0.15669712 -0.10740598 0.17884895 -0.055069428 -0.09777512 -0.04210256
-0.010880894 -0.12722692 0.12954043 0.28818798 -0.012778823 -0.09240629 0.09943936 -0.16871455
-0.14186828 0.14213584 -0.0750143 -0.14365692 0.06291288 -0.15197049 0.09578217 0.17072818
00000000: 5c78 9bbc 5605 e23d c900 00be 6411 e03d
00000010: da15 f3bc 6c46 a63d 712d 2cbd 8347 69be
00000020: f86d b33d 4530 debe 0fd8 11be 2c22 9b3e
00000030: 3f8a 4c3e f618 2c3b c48d c7bc 524e f93d
00000040: 1212 1f3e b0da 48be bc0d 7ebe 55fb 633e
00000050: 3301 d3bd 07b4 733e 576e f43d 3b02 873e
00000060: 6891 393e faca 2a3e 9dfa bfbe df52 92bd
00000070: 9c9b 8a3e 009c b33e 3981 3cbe d0df f23d
00000080: f415 fe3c dc8d 23be 6793 e5bc 5b9d c73d
00000090: 2c9b 303b ec47 193d 7073 1dbe fb75 07be
000000a0: 999a 76be d745 613c 2e23 04be 909e 633e
000000b0: e9e5 dcbc 5e01 27be 8e7b a43d a0ee 423e
000000c0: 79e2 b73e fa64 983d 6bf9 643e 4688 893e
000000d0: f8c1 073e 1f36 ff3c 4760 483e 2ea6 8fbe
000000e0: d722 3cbe 1c21 8c3d 36cc 44bb 14bf bbbd
000000f0: e6d3 8e3e b1b9 dfbd 645a ad3e ee26 b03e
00000100: 3147 8ebe 733a 443e 9b0a 6d3e e790 73bd
00000110: cb9a a6bd 54fb 21bd 65ab c43e c0aa 2abe
00000120: 6a58 093c 54ff 493e a3f7 893d bf52 b03d
00000130: 43ab 0e3e a0ea 2e3e 5d8b 54be e552 6ebe
00000140: f951 3f3e a1c3 8f3e bd35 68be 4dd2 b43d
00000150: 1046 a33c ab83 223e 27df 663e 1563 de3d
00000160: 9d87 ecbd 87b3 163e a454 3abd cc49 ef3d
00000170: 553d 443e 4b12 763e 6a75 4ebe a037 dc3d
00000180: 8ed5 9cbd 42e7 653d 473b 8bbd 8a72 01be
00000190: e915 28bd fe73 17be 4649 4fbd ecad 42be
000001a0: 3e30 9bbe 060b aebe 781f 2abe b3fa 243e
000001b0: 1e4d 803d de6d afbd f922 033d 7939 213d
000001c0: 26af d0be a502 043e a2a6 0dbd bc0a b83e
000001d0: 232e 26be 9676 99bd dd77 c5bd ac0b 623d
000001e0: 1e7e 8b3e b200 573e bb60 17bd b769 aabe
000001f0: a3d2 afbc 7f71 4f3e b52c 16be 832e b4bd
00000200: 6f8e 27be 4e52 e9bd 42dd 38be 9638 14be
00000210: a3eb 3f3e 4fb2 f7bd 4820 983c 8ed7 9e3e
00000220: 675f 6e3d 842d 7e3e 547c ba3e a170 b23c
00000230: e803 b43c 885b 29be 13c6 823e 0bec 64be
00000240: 2113 5e3c 2b82 87bd bc5c 2abe 2a98 813e
00000250: 6303 e93c 9c36 96bd 7c4f 123e 63c3 c13d
00000260: 4531 8dbd 5355 903d 1e95 91be 3c80 7a3d
00000270: 7676 083e 80b2 9a3c cf62 943e ca1c e6bd
00000280: 9179 d4bd 4140 9fbe 8eb5 e0bc 87c8 a1bc
00000290: e9c4 ebbd 5c49 18be 9098 cabc 8ea2 95be
000002a0: 109c 833d 2abe 0cbd dc6c 67be b531 2e3d
000002b0: 89d7 d93d 638d dc3c 14c6 c63d 072e 3d3e
000002c0: 38fc b8bd 60ae 203d 469f b23d cdec a7bc
000002d0: dc7e debc b8c0 1ebe 9896 053e 4744 22be
000002e0: f4b3 a63e 23a8 af3d 4901 66bc 807b 8ebe
000002f0: 78d3 6e3c e5fb d9bc f574 733e 528a 433e
00000300: f7b2 15be 0e30 a7bc 4b22 e43e 1453 4cbe
00000310: 0c2b 0d3e 79b3 83bd 59b7 94be 530b 90be
00000320: 0cb5 963b ef0b 75be 5693 fabd 6e1d 2ebe
00000330: 0553 713d ccf4 57bd af64 453a 01bd 023e
00000340: cd38 553d fb9e 3c3e f5b8 cdbd cd8c 523e
00000350: 6c16 94bc 5416 463e f5a8 e1bd a72c 553e
00000360: c379 bbbb 68f2 603e 416f 0e3e 669c 563e
00000370: 973c a93e 96f7 303d 791c 4dbe fe33 1e3e
00000380: c3d8 bf3d f49d 9ebe bde4 813c 2a25 ac3d
00000390: cf1e 963e 19f4 6abe fa60 493d e734 0d3e
000003a0: 9682 ae3e 60fe f73d 3675 203e abf7 dbbd
000003b0: 2e24 373e 7b90 61bd 523e c8bd bc73 2cbd
000003c0: c745 32bc c647 02be 3fa6 043e 608d 933e
000003d0: 455e 51bc 823f bdbd dda6 cb3d 82c3 2cbe
000003e0: eb45 11be 0f8c 113e 19a1 99bd cd1a 13be
000003f0: 78d8 803d 279e 1bbe 7129 c43d 5ed3 2e3e

transition.1.bias f4 [32]
0.370458 -0.11870058 0.21601674 0.2741556 -0.20815158 -0.15479027 -0.17063515 0.4147839
0.18504277 0.21581848 -0.2954964 0.002992198 0.12274054 -0.100268185 -0.12445705 0.46542132
0.12633964 -0.0999368 -0.3666771 0.10374463 0.17334116 0.094590314 0.36091208 0.68545175
0.013651503 -0.122643314 -0.25078413 -0.22460704 -0.38934994 0.048648737 -0.18863814 0.12261684
00000000: acac bd3e 4a19 f3bd 7e33 5d3e 1f5e 8c3e
00000010: b025 55be 5781 1ebe fbba 2ebe 8e5e d43e
00000020: da7b 3d3e 85ff 5c3e 4e4b 97be c118 443b
00000030: 645f fb3d 6859 cdbd 56e3 febd b44b ee3e
00000040: 2e5f 013e aaab ccbd 1abd bbbe 1178 d43d
00000050: 5880 313e 91b8 c13d 78c9 b83e c479 2f3f
00000060: 8eaa 5f3c 6b2c fbbd c766 80be 63ff 65be
00000070: e058 c7be e643 473d 5b2a 41be 8a1e fb3d

conv3.0.weight f4 [64, 32, 3, 3]
-0.061926305 0.03278417 0.1080393 -0.056812983 0.01987819 -0.066259995 -0.04610933 -0.17503679
-0.0369871 0.09756187 -0.012786922 0.07460449 0.007586348 -0.012364412 0.057847973 -0.017533764
0.10752085 0.01607454 -0.04109922 0.07933483 0.030561965 0.08984858 -0.09502918 0.07033081
0.19235171 0.14730145 -0.012404491 -0.02287268 0.027088271 0.097470805 -0.035549246 -0.052006632
-0.2691424 -0.10702853 -0.04884212 -0.091140985 0.025942365 0.11979633 0.009612271 0.09085196
0.0030650229 0.06981371 -0.00096479926 0.037550736 0.031837802 0.072931685 -0.08576122 -0.22456475
0.18571582 -0.004811454 -0.06465103 0.18795285 0.09839425 0.096652254 0.15345383 0.073540926
-0.07113164 0.072120555 0.017397998 -0.12950924 0.045509543 0.053527024 0.02007065 -0.040304642
0.074941784 -0.0025405644 -0.033913523 -0.0032177127 0.053144015 0.24222544 -0.077028535 -0.011051675
-0.010772504 -0.034372855 0.108237386 -0.03679733 -0.09072158 -0.2090859 -0.26731455 -0.0386138
0.03654782 0.037284512 -0.039678648 -0.07487549 -0.051176254 -0.041998576 -0.027219422 0.07947038
0.054561894 0.0032496776 0.0077450085 -0.042084612 0.016160289 -0.15077683 0.097615294 -0.067090616
-0.09872238 -0.119342804 0.07975438 -0.014620861 0.032228775 -0.15707502 0.05391496 -0.040280256
-0.14034033 0.008920712 -0.093654014 0.06824957 0.015059944 0.0332628 0.085516654 0.032882176
-0.054084968 -0.03853168 -0.12769529 -0.22284335 -0.17768462 0.021795131 0.094718255 -0.13629937
0.021339694 -0.024140082 -0.09432242 0.0127290925 -0.019681863 0.0127888 0.110518545 -0.03872301
0.0021631017 0.10515382 0.00239478 -0.065273836 -0.18108891 -0.0049776477 0.05536586 -0.07821018
-0.044072032 -0.07405417 0.14917561 0.04426369 -0.05986681 -0.00738187 -0.122325085 0.0008543642
0.18285337 0.18310046 0.26124865 -0.016438264 -0.059868902 -0.043104634 -0.092969164 -0.003771615
-0.025509086 -0.03996107 0.01777366 -0.05622968 -0.018470984 -0.010794544 -0.0717695 0.0029891036
0.087502286 0.15498413 0.2255479 0.16412042 0.026648259 0.042494096 -0.030199742 -0.053456713
0.18816563 0.21933351 0.14501448 -0.0124171255 -0.056366965 0.076434664 0.10130015 0.013429047
0.021141823 -0.032660577 -0.015117409 -0.027856559 -0.0596984 -0.07810875 0.07141427 -0.015442219
0.036724217 0.015522396 -0.016200911 0.07198171 -0.097381264 -0.061650995 -0.037361953 0.063166454
-0.03668668 0.015269273 0.02931235 0.10129791 0.017614715 0.038840804 -0.049459547 -0.026969096
0.12788603 -0.0023192759 -0.02450184 0.06796897 -0.20698823 -0.040927127 -0.06705666 -0.08974779
-0.023595253 0.12737662 -0.05697091 -0.20823553 0.069040105 0.0007941069 -0.16668387 -0.15069598
0.15960124 -0.049007207 -0.15673615 0.139738 -0.07381279 0.055094812 0.19788665 0.0518243
0.17787485 -0.019331498 -0.056301206 -0.11780396 -0.02238776 -0.027595269 -0.008904956 -0.0023491678
-0.09383758 -0.03953689 -0.058616426 -0.04815476 0.21863292 -0.014570251 -0.027393686 0.09897948
-0.057468746 -0.13400126 -0.1281334 0.10087835 -0.031891257 -0.08004138 0.08979428 0.031595554
-0.16796343 -0.19390224 -0.04718335 0.16343486 0.08709035 0.108242415 0.1385103 -0.033727255
00000000: 70a6 7dbd b248 063d b543 dd3d bbb4 68bd
00000010: 96d7 a23c 52b3 87bd 23dd 3cbd d83c 33be
00000020: c97f 17bd 85ce c73d 3d80 51bc 3dca 983d
00000030: e696 f83b 1a94 4abc fff1 6c3d f8a2 8fbc
00000040: e433 dc3d c1ae 833c a857 28bd 4d7a a23d
00000050: 165d fa3c 8802 b83d a99e c2bd 9a09 903d
00000060: d9f7 443e 31d6 163e 353c 4bbc 7d5f bbbc
00000070: 39e8 dd3c c69e c73d 169c 11bd e804 55bd
00000080: 08cd 89be c631 dbbd ad0e 48bd 20a8 babd
00000090: 1585 d43c c757 f53d c97c 1d3c 9810 ba3d
000000a0: 8dde 483b 7efa 8e3d 95ea 7cba cdce 193d
000000b0: 5b68 023d 355d 953d 94a3 afbd 4df4 65be
000000c0: 4a2c 3e3e 67a9 9dbb c267 84bd b676 403e
000000d0: ed82 c93d 9ef1 c53d 0023 1d3e a09c 963d
000000e0: 77ad 91bd f1b3 933d 3f86 8e3c 129e 04be
000000f0: 3768 3a3d 273f 5b3d 346b a43c 7b16 25bd
00000100: 147b 993d 997f 26bb e8e8 0abd 43e0 52bb
00000110: 8aad 593d f209 783e 23c1 9dbd 1612 35bc
00000120: 287f 30bc 8dca 0cbd 90ab dd3d ccb8 16bd
00000130: 3ccc b9bd 9d1a 56be 74dd 88be 8129 1ebd
00000140: 2bb3 153d a5b7 183d 1486 22bd 5258 99bd
00000150: 319e 51bd b306 2cbd 44fb debc 5ec1 a23d
00000160: 4b7c 5f3d 8bf8 543b d7c9 fd3b ea60 2cbd
00000170: 9562 843c 3e65 1abe 87ea c73d ce66 89bd
00000180: f62e cabd 006a f4bd 4456 a33d 568c 6fbc
00000190: 5202 043d 46d8 20be efd5 5c3d e9fc 24bd
000001a0: 60b5 0fbe 2e28 123c adcd bfbd 6ec6 8b3d
000001b0: fcbd 763c 933e 083d 5b23 af3d 76af 063d
000001c0: 3388 5dbd 65d3 1dbd 8ec2 02be 0c31 64be
000001d0: f5f2 35be b48b b23c a5fb c13d 1092 0bbe
000001e0: 95d0 ae3c 6cc1 c5bc 1d2c c1bd af8d 503c
000001f0: dc3b a1bc 1d88 513c 8c57 e23d 059c 1ebd
00000200: d3c2 0d3b e35a d73d bef1 1c3b 4aae 85bd
00000210: 5f6f 39be 891b a3bb 50c7 623d a92c a0bd
00000220: e084 34bd b6a9 97bd 7ec1 183e d84d 353d
00000230: e636 75bd 9de3 f1bb 9385 fabd 69f7 5f3a
00000240: ea3d 3b3e b07e 3b3e 62c2 853e 8aa9 86bc
00000250: 1839 75bd 7c8e 30bd 9e66 bebd 332d 77bb
00000260: 6ef8 d0bc 38ae 23bd 119a 913c 1851 66bd
00000270: 7650 97bc 99db 30bc e3fb 92bd d6e4 433b
00000280: 6634 b33d 29b4 1e3e 07f6 663e 2f0f 283e
00000290: 734d da3c 4a0e 2e3d 7365 f7bc 6df5 5abd
000002a0: 7eae 403e f798 603e ad7e 143e 3371 4bbc
000002b0: 0ce1 66bd c789 9c3d 7476 cf3d 8105 5c3c
000002c0: 9e31 ad3c 19c7 05bd 02af 77bc 7033 e4bc
000002d0: 4f86 74bd 7bf7 9fbd a541 923d 5c01 7dbc
000002e0: 226c 163d a651 7e3c c6b7 84bc 266b 933d
000002f0: d46f c7bd c185 7cbd d908 19bd 6a5d 813d
00000300: c644 16bd f92b 7a3c 7420 f03c 4775 cf3d
00000310: bc4c 903c 8917 1f3d 1896 4abd 4bee dcbc
00000320: 8ef4 023e fefe 17bb 15b8 c8bc 5133 8b3d
00000330: b9f4 53be 34a3 27bd 0155 89bd b0cd b7bd
00000340: d54a c1bc 046f 023e 545a 69bd b23b 55be
00000350: e664 8d3d 9d2b 503a 2daf 2abe 0c50 1abe
00000360: 826e 233e c8bb 48bd 717f 20be 7a17 0f3e
00000370: 292b 97bd 19ab 613d cca2 4a3e b845 543d
00000380: d324 363e 175d 9ebc 189c 66bd 3443 f1bd
00000390: 8966 b7bc 790f e2bc 18e6 11bc 7ff4 19bb
000003a0: eb2d c0bd 6ff1 21bd c717 70bd ed3d 45bd
000003b0: 4fe1 5f3e 10b8 6ebc b968 e0bc c1b5 ca3d
000003c0: 5964 6bbd a037 09be 6735 03be 4f99 ce3d
000003d0: 68a0 02bd bcec a3bd 10e6 b73d 576a 013d
000003e0: 9bfe 2bbe 4f8e 46be 5443 41bd 785b 273e
000003f0: 6d5c b23d 33ae dd3d a5d5 0d3e 9725 0abd

conv3.0.bias f4 [64]
-0.02834831 -0.105523475 -0.14954497 -0.036207788 -0.10125489 -0.03545686 -0.057322618 -0.006078592
-0.06002174 -0.18121201 -0.09039043 -0.03285001 0.04246145 -0.13608387 -0.075969644 -0.062110454
-0.05576102 -0.045754965 -0.07266942 -0.1550682 -0.021801222 -0.12790911 0.024528937 -0.17656735
-0.05543112 -0.2287715 -0.013814647 -0.13642664 -0.07911637 -0.0075197346 -0.0949527 -0.019340886
-0.14356327 -0.16776316 -0.024659738 -0.07836436 -0.05451206 -0.123567276 -0.051938605 0.04893437
0.01723888 -0.124793075 -0.072457865 0.038049523 -0.10885368 -0.10815471 -0.055683255 -0.07404865
-0.12946388 -0.112348124 -0.118825786 -0.009907653 -0.14044996 -0.1326789 -0.12797967 -0.11193393
0.04710497 -0.17898802 -0.16002965 -0.0679032 -0.032134116 -0.10721629 -0.14682357 -0.1321043
00000000: b73a e8bc b11c d8bd 5122 19be 9e4e 14bd
00000010: b95e cfbd 363b 11bd 1fcb 6abd ed2e c7bb
00000020: 5bd9 75bd a48f 39be 9e1e b9bd bb8d 06bd
00000030: 0fec 2d3d 9259 0bbe f995 9bbd 8867 7ebd
00000040: ab65 64bd 8f69 3bbd b4d3 94bd 33ca 1ebe
00000050: 7a98 b2bc 9bfa 02be e9f0 c83c 12ce 34be
00000060: be0b 63bd 1343 6abe d456 62bc 6db3 0bbe
00000070: c307 a2bd 1b68 f6bb 9076 c2bd c770 9ebc
00000080: 4002 13be 1bca 2bbe 3803 cabc 7e7d a0bd
00000090: 0a48 5fbd d710 fdbd 93bd 54bd 686f 483d
000000a0: 8d38 8d3c 8393 ffbd ca64 94bd d1d9 1b3d
000000b0: aeee debd 3780 ddbd 2014 64bd d2a6 97bd
000000c0: 2e92 04be c616 e6bd ef5a f3bd b553 22bc
000000d0: 1dd2 0fbe fadc 07be 1a0d 03be 9e3d e5bd
000000e0: 24f1 403d a348 37be d0de 23be d510 8bbd
000000f0: 109f 03bd 3794 dbbd eb58 16be 5a46 07be

conv3.2.weight f4 [64]
1.1366807 0.77686113 0.89979553 0.9418132 1.0891075 0.9076532 1.0065345 1.1963499
0.923679 1.1972951 0.76290315 0.9917699 1.0423818 1.0877194 0.9175279 0.91586745
1.0390755 0.880518 1.0948054 1.0430256 0.9399983 1.0914904 0.9426299 1.1787004
0.8728579 1.1931454 0.7246268 1.108137 0.99640906 1.1354382 0.9149099 1.1448988
1.0916141 0.8536582 1.0329895 0.9726401 0.92872596 1.1506107 0.9072784 0.85453624
1.1018022 0.8257537 1.0067668 0.92428666 0.969121 1.0591433 1.0224078 1.0445789
0.9354521 1.0483811 0.9719998 1.0293077 1.0359632 0.9786416 1.1514013 1.0425725
0.74957156 1.0639797 0.7403445 1.0563254 1.0092663 1.1101899 0.99721533 0.9913971
00000000: c17e 913f 5fe0 463f 0059 663f ab1a 713f
00000010: e067 8b3f f65b 683f 1fd6 803f fe21 993f
00000020: 3a76 6c3f f740 993f 9f4d 433f a2e4 7d3f
00000030: c46c 853f 643a 8b3f 1ce3 6a3f 4a76 6a3f
00000040: 6d00 853f a169 613f 9522 8c3f dd81 853f
00000050: bba3 703f f5b5 8b3f 3150 713f a8df 963f
00000060: 9e73 5f3f fdb8 983f 2481 393f 6fd7 8d3f
00000070: aa14 7f3f 0a56 913f 8937 6a3f 0b8c 923f
00000080: 03ba 8b3f 5889 5a3f 0039 843f f1fe 783f
00000090: fcc0 6d3f 3647 933f 6643 683f e3c2 5a3f
000000a0: db07 8d3f 9864 533f bcdd 803f 0d9e 6c3f
000000b0: 5018 783f 0292 873f 42de 823f c3b4 853f
000000c0: ca79 6f3f 5a31 863f fbd4 783f 5bc0 833f
000000d0: 719a 843f 4288 7a3f 1e61 933f 0473 853f
000000e0: ece3 3f3f 7d30 883f 3887 3d3f ac35 873f
000000f0: a32f 813f b41a 8e3f 8149 7f3f 33cc 7d3f

conv3.2.bias f4 [64]
0.17564638 0.08467303 0.16139817 0.03332187 0.109579526 0.25635976 0.1632699 0.26828834
0.061234947 0.44787621 -0.0061539537 0.19351113 0.08189399 0.31521788 0.108189926 0.12714101
0.47138256 0.012756497 0.37523112 0.33489218 0.13857576 0.13839911 0.10105436 0.36897397
0.013725536 0.2485441 0.028134685 0.34316677 0.122438915 0.25206345 0.120911114 0.44412997
-0.023076827 0.58985484 0.041592766 0.029496962 0.34759766 0.20944975 0.256242 -0.03148808
0.33133796 0.07197671 0.1826123 0.114204824 0.3077957 0.04247581 0.053051777 0.18714246
0.3241267 0.096056215 0.427387 0.16323268 0.20247078 0.1137485 0.32844868 0.2655534
-0.2966706 0.19186279 0.35132432 0.053070225 0.12728813 0.4699755 0.15486573 0.15291132
00000000: a5dc 333e 0e69 ad3d 9045 253e 837c 083d
00000010: 3b6b e03d 9641 833e 3a30 273e 175d 893e
00000020: 7fd1 7a3d 0850 e53e 1ba7 c9bb c827 463e
00000030: 09b8 a73d 3d64 a13e ae92 dd3d 4131 023e
00000040: 0e59 f13e a000 513c 4b1e c03e fd76 ab3e
00000050: cee6 0d3e 7fb8 0d3e 97f5 ce3d 28ea bc3e
00000060: 12e1 603c 5882 7e3e b67a e63c 8eb3 af3e
00000070: 41c1 fa3d 760e 813e 3fa0 f73d 0165 e33e
00000080: 9d0b bdbc ba00 173f 2d5d 2a3d 9da3 f13c
00000090: 52f8 b13e ff79 563e 2732 833e a5f9 00bd
000000a0: 21a5 a93e 8668 933d b8fe 3a3e 38e4 e93d
000000b0: 6697 9d3e 1dfb 2d3d d24c 593d 46a2 3f3e
000000c0: eff3 a53e 1fb9 c43d 78d2 da3e 7826 273e
000000d0: 8054 4f3e f9f4 e83d 6d2a a83e 9ef6 873e
000000e0: 35e5 97be ae77 443e c8e0 b33e 2a60 593d
000000f0: d257 023e a1a0 f03e 1f95 1e3e c994 1c3e

conv3.2.running_mean f4 [64]
0.47634864 1.4676522 0.6820435 0.67780167 0.40404814 1.0191903 1.0502737 0.48434183
1.1570183 0.39304832 0.51268697 0.47052196 0.36525658 1.8932748 1.2185607 0.35112107
1.5826796 1.0724562 0.59300756 1.8237771 0.90674007 0.6332012 0.51104665 0.365684
0.91462225 0.6257744 1.1731507 0.595536 0.59673554 0.119086385 0.82689404 0.6561388
0.3627027 1.4689337 1.137649 0.875563 0.42981485 0.89299196 0.61601055 1.6016896
0.32579368 0.50586957 0.49519962 0.7481138 0.3984104 0.6804174 0.5400822 1.7041603
1.5221057 0.4607283 1.0123956 0.7100983 0.9794656 1.168188 0.56795114 0.5646378
0.5476463 0.26759663 1.5895654 0.33483002 1.4286828 1.0439893 1.0088985 0.6987706
00000000: f8e3 f33e 07dc bb3f 679a 2e3f 6984 2d3f
00000010: 66df ce3e d474 823f 5e6f 863f a7fb f73e
00000020: 2d19 943f a13d c93e 743f 033f 41e8 f03e
00000030: e902 bb3e d456 f23f ccf9 9b3f 24c6 b33e
00000040: 3f95 ca3f 3f46 893f 58cf 173f 8771 e93f
00000050: 1e20 683f 7919 223f f4d3 023f ef3a bb3e
00000060: af24 6a3f c032 203f cd29 963f 0c75 183f
00000070: a9c3 183f 90e3 f33d 54af 533f b6f8 273f
00000080: 2bb4 b93e 0506 bc3f 7c9e 913f e624 603f
00000090: b110 dc3e 1f9b 643f deb2 1d3f 2a04 cd3f
000000a0: 6ece a63e ab80 013f ce8a fd3e 6384 3f3f
000000b0: 73fc cb3e d62f 2e3f d442 0a3f ed21 da3f
000000c0: 5cd4 c23f 94e4 eb3e 2e96 813f 01c9 353f
000000d0: 42be 7a3f 2f87 953f 3f65 113f 1a8c 103f
000000e0: 8c32 0c3f 6d02 893e e176 cb3f d76e ab3e
000000f0: 14df b63f 71a1 853f 9623 813f a1e2 323f

conv3.2.running_var f4 [64]
2.9732482 8.998437 3.8473473 2.5639348 2.4133646 5.910015 7.709954 2.2064822
8.284818 2.1857069 2.468016 1.4655007 1.2761043 14.562781 6.5387173 2.508128
12.814725 5.6755323 3.0842414 12.702881 6.5267425 3.7530098 2.1626315 2.7705212
4.4294186 7.071006 5.9265513 3.4244673 3.0562322 0.15759766 5.3406167 3.883531
3.2183719 11.242323 7.544278 5.953182 1.421949 9.456993 3.3048086 8.82124
1.2708497 2.8055081 3.3010318 3.7015927 2.7746384 4.518276 5.6381793 13.241395
9.291983 3.4810753 6.899877 4.2787924 8.174158 7.498263 4.639453 3.654585
3.114552 1.8373667 10.914423 2.561982 9.266959 6.0694566 7.216474 3.5992382
00000000: b349 3e40 99f9 0f41 f03a 7640 8217 2440
00000010: 9174 1a40 d81e bd40 f1b7 f640 0137 0d40
00000020: 9d8e 0441 9fe2 0b40 f9f3 1d40 8795 bb3f
00000030: 6357 a33f 2701 6941 2c3d d140 2b85 2040
00000040: 1d09 4d41 f69d b540 3664 4540 003f 4b41
00000050: 13db d040 5031 7040 8e68 0a40 3850 3140
00000060: ccbd 8d40 ae45 e240 4fa6 bd40 792a 5b40
00000070: 4f99 4340 4861 213e 55e6 aa40 c68b 7840
00000080: cef9 4d40 8ee0 3341 ba6a f140 7880 be40
00000090: 6d02 b63f d84f 1741 fc81 5340 cd23 0d41
000000a0: 34ab a23f 728d 3340 1b44 5340 e5e6 6c40
000000b0: ad93 3140 b895 9040 f76b b440 c1dc 5341
000000c0: f6ab 1441 f0c9 5e40 cbcb dc40 deeb 8840
000000d0: 5ac9 0241 c5f1 ef40 6676 9440 b8e4 6940
000000e0: d254 4740 d52e eb3f 7aa1 2e41 83f7 2340
000000f0: 7745 1441 fd38 c240 5bed e640 eb59 6640
